regression/weight.npy (npy, 1288 bytes, 1 tensors)

array f8 [145, 1]
21.37394067796659 -0.5456354373179556 1.1317240370827346 -1.5400918279898685 -0.33692679341812726 1.3239645535153592 -0.45171575244068024 -1.7653350621597403
2.0447176986103885 0.08514363215306926 0.06975202054730194 0.07143460093847999 -0.008578823623134531 -0.0026227912516610377 -0.21012474263704245 0.12999623522881693
0.5023665917392964 0.01740777031098835 0.06669740202208846 -0.1594018040895551 0.1453354618477669 -0.019107231132823154 -0.15831348724495778 0.07483751097574945
0.40087163854428626 0.2926240917394545 -0.26621830144045544 0.27442364300283073 0.32470180606778276 -0.5182331769456939 0.08170075248078337 0.1681912921379087
0.06825076448647628 -0.015879909618108416 0.24018667418411915 -0.3903798565376678 -0.08279600400242539 -0.3212613098972469 0.03498262632630876 0.07986760009250203
-0.5067482704359639 -0.412696716502313 -0.19366954099022077 -1.002696216647274 -0.39705852273770076 -0.3082689521469138 -0.43420055997689266 -1.039458903554669
0.6297164256238151 0.05320454672896567 0.1259076723385396 1.0445680208145829 0.3632359304990493 0.4799701834252035 0.07531119260825414 0.5575153330730486
1.373558505664733 0.1833013445756281 -0.18639350192062196 -0.333645987065554 -0.008576099460272378 -0.5460374864693541 -0.4328333045104336 -0.19171480065213448
1.83733929035594 0.34692105417700325 -0.8100474239298056 1.0534866830932597 -0.1026959500998011 -1.0448856224293295 1.0163066240239143 -0.04760234069706083
0.9177836070666489 -0.8093728628997566 3.5438809223992362 -3.5254602907230432 -0.686737784729868 8.187143150019889 -9.103731206860797 0.2822015082599511
15.844896394404262 0.004412942348740324 -0.08758224339013408 0.010786589476862996 -0.10040499386171939 0.11002992780135284 0.03646479027907722 -0.08653115699174496
-0.15648489791739909 0.19153394090837939 0.22670883862455204 -0.5971908725632558 -0.9302202193294549 1.476056339082203 -1.476555070988751 0.14591941407992545
0.5985143659072678 0.23043710253495384 -0.08267734926607195 -0.12312140609914163 -0.03482223481071347 0.101938917531516 -0.19937366643981014 0.2670000481997179
0.2358940858051469 -0.25098428376183046 0.14235785771861148 -0.42067178141694844 -0.08691236462588554 0.33696083855484266 0.11491860239120216 -0.33624437954908604
-0.13769552382058525 0.17092437006235814 -0.05728080121109662 0.16608553283583172 0.05101912695501751 0.17721930564464936 -0.24968541818901768 0.10951112085688076
0.04669562806952051 -0.09587016363392513 0.10068541773749841 -0.18302551843351295 0.036950277024309974 -0.00401705722754352 0.006558920112813246 -0.23720865186883996
0.026418136893247686 -0.13248402898442788 0.19725211910162185 0.05276701935296564 -0.10849271282235727 -0.09156953299015934 -0.04705227449157843 -0.029067395660430023
-0.14038472881162636 0.06813275729084103 -0.13051303195297773 -0.20166037958767813 -0.03986512726799365 0.34690992233171003 -0.007171890064246311 -0.31198980989824554
0.1975683357026378
00000000: b582 8693 ba5f 3540 8537 da72 d875 e1bf
00000010: 05e1 f5a9 8a1b f23f 7eda 2054 37a4 f8bf
00000020: d820 b865 3590 d5bf 5d96 a674 f52e f53f
00000030: 3b87 f42f e9e8 dcbf d654 67fa cf3e fcbf
00000040: 0aac e8f3 945b 0040 d561 8f1b f9cb b53f
00000050: 03a1 14b7 44db b13f a965 d5ba 8949 b23f
00000060: f134 3237 c691 81bf 7ec6 cd54 647c 65bf
00000070: 0e6f da18 5ee5 cabf 1a98 7475 b7a3 c03f
00000080: c3f1 431a 6313 e03f 9457 bab0 57d3 913f
00000090: 9cbc 69b8 1413 b13f 0978 be3f 4767 c4bf
000000a0: 50e8 ca37 5a9a c23f 1392 5493 d890 93bf
000000b0: 9dcc 1dc9 9d43 c4bf 8aa6 2716 8d28 b33f
000000c0: df43 5c84 e1a7 d93f f4ba 0266 5aba d23f
000000d0: a623 927c b809 d1bf ca90 fc2e 2890 d13f
000000e0: 46d9 8015 eac7 d43f cfe2 55be 5d95 e0bf
000000f0: 92ab f62b 57ea b43f 7f26 9ad1 4a87 c53f
00000100: 617b 65d1 e178 b13f 8e91 e4b1 d242 90bf
00000110: 6e24 47db 6fbe ce3f 522c 36cb fbfb d8bf
00000120: 110e 6e71 1e32 b5bf 9aa4 de98 8b8f d4bf
00000130: aed6 ff27 3ee9 a13f ff44 68fa 3372 b43f
00000140: 0577 1a26 4837 e0bf 30d1 227d 9f69 dabf
00000150: ea64 64dc 29ca c8bf e52a 2530 0b0b f0bf
00000160: 736a 7026 6869 d9bf b9f6 f5b2 adba d3bf
00000170: 6a5c 4025 f1c9 dbbf 68da c4a8 9fa1 f0bf
00000180: 9ddd b90f a326 e43f 3e19 6658 a03d ab3f
00000190: ac37 811b be1d c03f 8c89 fdf4 8cb6 f03f
000001a0: 576f 8eea 413f d73f 9c72 37dc d4b7 de3f
000001b0: 1074 4625 9847 b33f 3f27 5265 2ad7 e13f
000001c0: 0390 cf7b 18fa f53f 6df0 2120 6b76 c73f
000001d0: 57ce 7705 bedb c7bf 29d8 b8b2 745a d5bf
000001e0: 7f43 ac95 5890 81bf 53d4 589b 2379 e1bf
000001f0: a57b df75 8ab3 dbbf cee3 7a4f 1c8a c8bf
00000200: f7c0 3be2 bd65 fd3f 0efb 7e5d f433 d63f
00000210: 1d9a 3f93 e8eb e9bf 5883 2ada 14db f03f
00000220: 353c 1c23 484a babf 2d50 86fc d9b7 f0bf
00000230: 0b41 0ebc ca42 f03f d28b 0381 555f a8bf
00000240: 5bff 24ba 7b5e ed3f 3f94 0deb 61e6 e9bf
00000250: f9fb b43d de59 0c40 5904 6086 2434 0cc0
00000260: e3f3 ca84 c1f9 e5bf fe02 1a3a d15f 2040
00000270: 5e15 ba41 1c35 22c0 6fef 36ea 960f d23f
00000280: 02f3 9c42 96b0 2f40 6852 1231 4e13 723f
00000290: ff28 1237 ca6b b6bf 5adb 4e88 4717 863f
000002a0: 06bd fd44 24b4 b9bf f4f0 7cdd eb2a bc3f
000002b0: 6e84 6853 83ab a23f 8855 5de9 e726 b6bf
000002c0: a5c2 6f77 b207 c4bf 2043 2326 2f84 c83f
000002d0: d4a4 cd93 cb04 cd3f d81f 6408 301c e3bf
000002e0: 7422 8331 5dc4 edbf b495 7640 ed9d f73f
000002f0: fb3b ca35 f89f f7bf cb91 a9c3 7cad c23f
00000300: a840 7899 0727 e33f 9718 9685 f67e cd3f
00000310: 60be 37bf 572a b5bf 1c23 a26c e284 bfbf
00000320: 230d 5f4f 38d4 a1bf f3cc fc3c ab18 ba3f
00000330: d473 8588 1385 c9bf e815 c35e 8716 d13f
00000340: 9b2c ed03 c731 ce3f 7a4a a462 2010 d0bf
00000350: 8672 9d43 c838 c23f 6f4b e255 49ec dabf
00000360: 2dab af83 e33f b6bf dd0c 6831 c490 d53f
00000370: c4e4 f836 4e6b bd3f fe22 6825 0785 d5bf
00000380: 68b8 cec5 01a0 c1bf e7ec c089 d9e0 c53f
00000390: 46da c7bf e853 adbf 502f ef6d 4a42 c53f
000003a0: 1c0b 7cd3 2d1f aa3f 2757 fb48 1faf c63f
000003b0: 1478 b418 b1f5 cfbf 59ec a0ba eb08 bc3f
000003c0: 7b7b d946 7de8 a73f db49 7871 f28a b8bf
000003d0: 09dd 5d00 85c6 b93f 66b0 0054 616d c7bf
000003e0: e08b cb8e 25eb a23f f402 b296 3074 70bf
000003f0: 9612 1bb6 86dd 7a3f eb6d 0d65 da5c cebf
00000400: 4237 e927 5b0d 9b3f db7e dd95 3cf5 c0bf
00000410: 47d8 4db4 8e3f c93f 7a55 db5c 4704 ab3f
00000420: e724 6dad 2dc6 bbbf bfb2 80d5 1971 b7bf
00000430: dd98 4958 3c17 a8bf db3b f7e6 d7c3 9dbf
00000440: 2548 8d75 20f8 c1bf 42b8 59fc 2571 b13f
00000450: c14c f8a9 a6b4 c0bf e02f 9ddf 01d0 c9bf
00000460: b3db bbb3 3369 a4bf 64a5 c4ac c533 d63f
00000470: d951 6c94 4560 7dbf aaaf 8c1b a4f7 d3bf
00000480: 85b3 4852 eb49 c93f
